CppTorch2/models/net.pt (torch, 110183 bytes, 3 tensors)

weight f4 [256, 100]
0	0x3da1e31b	0.07904645
1	0x3d5b7747	0.05358055
2	0xbaef9867	-0.0018279672
3	0xbc675b4d	-0.014120889
4	0x3d5405f3	0.051763486
5	0xbda861e3	-0.082217954
6	0x3dcbed90	0.09957421
7	0xbcdde560	-0.027086914
8	0x3c2b735a	0.010464514
9	0xbcda537a	-0.026651133
10	0x3d42e877	0.047584977
11	0xbd55d1b0	-0.052201927
12	0xbd91e62b	-0.07123979
13	0x3d5c7f00	0.053832054
14	0xbda8748f	-0.08225357
15	0x3d6a87fd	0.057258595
16	0x3d06ee1a	0.032941915
17	0xbd36dc9d	-0.044643987
18	0x3dad3b8f	0.084586255
19	0xbc424540	-0.011857331
20	0x3ace5e00	0.0015744567
21	0xbc8d718d	-0.01726606
22	0xbd9591d5	-0.07303206
23	0x3bb1ff67	0.0054320577
24	0xbc932013	-0.01795963
25	0x3da413ff	0.080116265
26	0xbc9daa20	-0.019246161
27	0xbdc65cd7	-0.096856765
28	0x3dca34aa	0.09873326
29	0xbc7978b3	-0.015226531
30	0x3cfd39ba	0.030911315
31	0xbdbc7f28	-0.09203941
32	0x3d4923cd	0.049106408
33	0x3d583290	0.052782595
34	0xbb0d109a	-0.0021524788
35	0xbd383037	-0.044967856
36	0xbca97ca7	-0.020689322
37	0xbd4e0a07	-0.05030253
38	0x3d26f683	0.040762436
39	0x3db2911d	0.087190844
40	0xbd3e5da0	-0.046476007
41	0x3c28a8c0	0.010294139
42	0x3d9ffe5d	0.07812188
43	0xbc5f8700	-0.013643026
44	0x3d34f6a0	0.044180512
45	0x3da186a3	0.07887008
46	0xbd9297c0	-0.0715785
47	0x3dc670e2	0.096894994
48	0x3c645d27	0.013938225
49	0xbc95cce0	-0.018286169
50	0xbdb2bd85	-0.08727554
51	0x3c9e51d3	0.019326126
52	0xbd8b7da3	-0.06811073
53	0x3d4385b0	0.047734916
54	0x3dbaaf1b	0.0911543
55	0x3d1ce73d	0.038306464
56	0xbce742ad	-0.028230036
57	0x3d5a504a	0.053299226
58	0xbdc270b5	-0.094941534
59	0x3c4ee19a	0.01262703
60	0xbd902f65	-0.0704029
61	0x3dcc2c87	0.099694304
62	0xbcd0d827	-0.025493694
63	0xbdb52358	-0.08844632
64	0xbda01ccf	-0.07817995
65	0x3d7ba41d	0.061435807
66	0x3cd4ef47	0.025993003
67	0x3db6bc18	0.08922595
68	0xbd537a63	-0.05163039
69	0x3dbabc35	0.09117929
70	0x3c51d99a	0.012808228
71	0x3cb03407	0.021509184
72	0xbd567973	-0.052361917
73	0xbdb27663	-0.08713987
74	0xbd37f67d	-0.044912804
75	0x3dba3bcd	0.09093437
76	0x3dbd99f5	0.092578806
77	0xbc8d8713	-0.017276322
78	0xbd501cd7	-0.050808754
79	0x3d23df67	0.040007975
80	0x3d8d5d42	0.06902553
81	0x3da8b0cf	0.082368486
82	0x3db4167f	0.08793353
83	0x3b589800	0.0033049583
84	0x3daa82d3	0.08325734
85	0xbd8f0a70	-0.06984413
86	0x3cd0c367	0.0254838
87	0xbd9986ca	-0.07496412
88	0xbc49984d	-0.012304378
89	0x3c7485e7	0.014924503
90	0x3d1dc647	0.03851917
91	0xbd0c4490	-0.034245074
92	0xbdb5ac17	-0.08870714
93	0xbdc47228	-0.09592086
94	0x3d89dbf2	0.06731404
95	0xbdb45bff	-0.08806609
96	0xbc745f27	-0.014915264
97	0xbc9ebbfa	-0.019376744
98	0x3dbabd63	0.09118154
99	0x3ce5af2d	0.028037632
100	0x3db7b6fb	0.08970448
101	0xbdb26468	-0.08710557
102	0xbb9a2fe7	-0.0047054174
103	0xbc293c80	-0.010329366
104	0xbccfa47a	-0.025346983
105	0x3dcb73ba	0.099341825
106	0x3c0f46c0	0.008744895
107	0x3bff98b3	0.0078001856
108	0x3dc81c1f	0.09770989
109	0xbda10048	-0.07861382
110	0x3da5751f	0.0807898
111	0x3d52ea40	0.05149293
112	0x3d730fd0	0.05934125
113	0xbda5b24a	-0.080906466
114	0xbd3e3180	-0.046433926
115	0xbd8c71f7	-0.068576746
116	0xbacaee00	-0.0015482306
117	0xbd8c2a3f	-0.06843995
118	0x3d995452	0.07486786
119	0xbb31cacd	-0.0027128935
120	0x3d2d7527	0.042348053
121	0xbd8ac312	-0.06775488
122	0xbd91f142	-0.071260944
123	0x3dc76e35	0.09737817
124	0x3d5a9e37	0.05337354
125	0x3dc7c347	0.09754043
126	0x3dab033d	0.08350227
127	0xbd70b327	-0.058764603
128	0x3cdba887	0.026813759
129	0x3d5b25d3	0.05350287
130	0xbd8a9623	-0.067669176
131	0x3cbbc113	0.022919213
132	0x3d1fb927	0.038994934
133	0xbd2e28b0	-0.04251927
134	0xbc931753	-0.017955458
135	0x3d4850f3	0.048905324
136	0xbdc7a758	-0.09748715
137	0xbd91911f	-0.07107758
138	0xbda4cc85	-0.080468215
139	0xbcd52040	-0.026016355
140	0x3bb6b600	0.0055758953
141	0x3d2fc54d	0.04291277
142	0xbd655f57	-0.055999126
143	0x3d1126c3	0.035437357
144	0x3dab61b8	0.08368248
145	0x3d8363bd	0.06415508
146	0xbd1d15c7	-0.038350847
147	0xbc71a8c0	-0.014749706
148	0xbd4b1f5a	-0.049590446
149	0x3d0d7047	0.034530904
150	0xbd4c125d	-0.0498222
151	0xbd5a1133	-0.05323906
152	0x3d1764f3	0.036961507
153	0xbd9c4e2d	-0.07632098
154	0xbc97d8a0	-0.018535912
155	0x3d50022a	0.050783314
156	0xbd121b33	-0.03567047
157	0xbd8c3d05	-0.06847576
158	0x3d9d3c1d	0.07677481
159	0x3daff4c3	0.085916065
160	0xbd8554ea	-0.06510337
161	0xbcc881e7	-0.024476005
162	0x3d5b88a7	0.05359712
163	0xbc38d8a7	-0.011282123
164	0xbd21fbca	-0.039546765
165	0xbb84e9cd	-0.0040561915
166	0x3c4d2d80	0.012523055
167	0xbc6c559a	-0.014424706
168	0x3abb1e00	0.0014275908
169	0x3d8ae385	0.06781677
170	0x3dcb73d5	0.099342026
171	0x3cc206da	0.023684908
172	0x3d8e8883	0.06959631
173	0x3dacae28	0.08431655
174	0xbd28b863	-0.04119147
175	0x3cca04f3	0.024660563
176	0x3c487da7	0.012236989
177	0xbdafa18f	-0.08575737
178	0xbbd5cb1a	-0.0065244557
179	0xbd7f6837	-0.062355246
180	0x37d5cccd	2.5486946e-05
181	0xbd2d8483	-0.0423627
182	0xbd4a9a1a	-0.04946337
183	0x3ca3173a	0.019908536
184	0xbd6eedfa	-0.05833242
185	0xbbcce14d	-0.006252444
186	0x3d51b930	0.051202
187	0xbc3f288d	-0.011667383
188	0x3dbfafeb	0.093597256
189	0xbdb33ecf	-0.08752214
190	0x3d6a12da	0.057146885
191	0x3d426a23	0.0474645
192	0xbd4040b0	-0.04693669
193	0x3d8803da	0.066413596
194	0x3cc73833	0.02431879
195	0x3cc0478d	0.023471618
196	0xbd8fcc17	-0.07021349
197	0x3ca72613	0.020403897
198	0x3dbeabf3	0.093101405
199	0xbccd3273	-0.02504847
200	0x3c6feb73	0.014643538
201	0xbda61b62	-0.081106916
202	0xbda69540	-0.08133936
203	0x3bbef867	0.0058279517
204	0xbc985573	-0.018595433
205	0xbd86f5a0	-0.06589818
206	0xbd9bb6d0	-0.07603228
207	0xbd81910a	-0.06326492
208	0xbdbe612a	-0.09295876
209	0xbdb16960	-0.08662677
210	0x3dbc791b	0.092027865
211	0x3ba8699a	0.005139542
212	0x3d47da9d	0.04879247
213	0xbdc101ca	-0.09424169
214	0xbba10a1a	-0.0049145343
215	0x3dcc5e4d	0.09978924
216	0xbd501c33	-0.050808143
217	0x3da7ef2a	0.08199914
218	0xbce88133	-0.02838192
219	0xbd94e74f	-0.07270681
220	0x3d929ee2	0.07159211
221	0x38d5e667	0.00010199547
222	0xbd5d9337	-0.054095473
223	0x3c597180	0.013271689
224	0x3d8a5560	0.06754565
225	0x3dc25c32	0.09490241
226	0xbdaac077	-0.08337491
227	0x3d4e3593	0.05034406
228	0xbd222add	-0.03959166
229	0x3d63b75a	0.05559478
230	0xbcb2416d	-0.021759713
231	0xbd6ef9e7	-0.058343794
232	0xbda2a1ca	-0.07941015
233	0xbd985ecb	-0.07439955
234	0xbd3d9af7	-0.046290364
235	0xbd60a3a3	-0.054843556
236	0x3d00c083	0.031433593
237	0xbd9836bd	-0.074323155
238	0x3d9f15b8	0.077678144
239	0xbd808d88	-0.06276995
240	0xbc29c70d	-0.010362399
241	0xbd56bbb0	-0.052425086
242	0xbcccfafa	-0.025022019
243	0xbc406340	-0.011742413
244	0xbdbc710f	-0.09201252
245	0x3d94ec0a	0.072715834
246	0x3d640f77	0.05567881
247	0x3d301f70	0.04299873
248	0x3d74ada0	0.059735894
249	0x3d238f00	0.039931297
250	0x3db3a7e2	0.087722555
251	0xbd2f88c3	-0.042855036
252	0xbdc83c02	-0.097770706
253	0x3c098e00	0.008395672
254	0x3cdbcf00	0.026832104
255	0xbd0bbe77	-0.03411719

bias f4 [256]
0	0xbd1f0b57	-0.038829174
1	0xbcdc47e7	-0.026889754
2	0x3d5892d3	0.052874397
3	0x3d264c87	0.040600326
4	0xbdbb2ed0	-0.09139788
5	0x3d4c9707	0.04994872
6	0xbd6ad32a	-0.057330288
7	0xbda4ae58	-0.08041066
8	0xbce54200	-0.027985573
9	0x3d92853b	0.07154318
10	0xbd84684f	-0.06465208
11	0xbd758e7d	-0.05995034
12	0x3d76864a	0.06018666
13	0x3d8f7ea7	0.07006579
14	0xbdbfb6cf	-0.0936104
15	0xbce1794d	-0.027523661
16	0xbd6851ca	-0.056718625
17	0xbda4f77b	-0.08055016
18	0x3d61ae8a	0.055098094
19	0x3d8c363f	0.06846284
20	0x3d9fe778	0.07807821
21	0x3d85f070	0.065400004
22	0xbd7c6123	-0.061616074
23	0x3cbb35ad	0.022852743
24	0xbd48296d	-0.04886763
25	0xba05de67	-0.0005106688
26	0x3da07d37	0.07836383
27	0xbdac2353	-0.08405175
28	0x3d2c39b7	0.04204723
29	0x3dcca903	0.09993174
30	0x3c5d4ccd	0.01350708
31	0xbdabd2dd	-0.08389828
32	0xbdbb6fe8	-0.09152204
33	0xbd839425	-0.06424741
34	0x3b5a86cd	0.0033344508
35	0xbd0a1b43	-0.033717405
36	0xbc873ae0	-0.016507566
37	0xbd745dba	-0.059659697
38	0x3d77d4f7	0.060505833
39	0xbd251c70	-0.040310323
40	0x3d27cbdd	0.040965904
41	0x3d95a570	0.07306945
42	0x3d4351e0	0.047685504
43	0x3d9b6a03	0.075885795
44	0xbdb0f2c2	-0.086400524
45	0x3dbd08d7	0.09230202
46	0x3b89f580	0.004210174
47	0xbcca9e73	-0.024733758
48	0xbd8af990	-0.067858815
49	0x3d814012	0.063110486
50	0x3d0c29a3	0.034219395
51	0x3d55097a	0.05201099
52	0xbc472a5a	-0.0121560935
53	0x3ca15487	0.019693626
54	0xbdc2e10d	-0.09515581
55	0xbc556067	-0.013023472
56	0x3b7a8ccd	0.0038230896
57	0xbd761c93	-0.060085844
58	0x3d680b90	0.05665165
59	0x3da73075	0.08163539
60	0x3dcaac58	0.09896153
61	0x3dad6aef	0.084676616
62	0xbc3022e7	-0.010750509
63	0x3dcafb3a	0.09911199
64	0xbd98d637	-0.07462733
65	0x3dc3fe50	0.09569991
66	0x3dccb3cf	0.09995233
67	0xbd1a503a	-0.037674166
68	0x3d33088d	0.043709327
69	0x3d75a62d	0.05997293
70	0x3db498df	0.0881822
71	0xbd8cc85f	-0.06874155
72	0x3d20149a	0.039082147
73	0xbd1e9a33	-0.038721275
74	0xbd2ce7b0	-0.042213142
75	0xbd870345	-0.065924205
76	0xbd55ecaa	-0.052227654
77	0xbda582aa	-0.08081563
78	0xbc7abfa7	-0.015304483
79	0x3da87670	0.08225715
80	0x3dc272fb	0.09494587
81	0xbd91d00a	-0.071197584
82	0x3db58898	0.08863944
83	0xbd3d4c1d	-0.046215165
84	0xbd1b4380	-0.03790617
85	0xbd116870	-0.03549999
86	0x3d049287	0.032366302
87	0xbbd18ab3	-0.006394708
88	0xbd8ac8b3	-0.067765616
89	0x3dba0587	0.090830855
90	0xbd573760	-0.052543044
91	0x3c93084d	0.017948294
92	0x3cad16fa	0.02112912
93	0x3dcb53a5	0.09928063
94	0x3d004127	0.031312134
95	0xbd8546c0	-0.06507635
96	0x3ced01da	0.028931547
97	0x3d4afbea	0.04955665
98	0x3dab65e2	0.08369042
99	0xbca496c7	-0.020091427
100	0xbbdad833	-0.006678605
101	0x3dcc0377	0.09961598
102	0xbd44e2cd	-0.048067857
103	0x3b0621cd	0.0020466924
104	0xbda8ffaa	-0.08251889
105	0xbd153273	-0.036425065
106	0xbd366c0d	-0.04453664
107	0x3d83620b	0.064151846
108	0xbdcad7cb	-0.099044405
109	0x3cb77ba0	0.022397816
110	0x3d1c2d93	0.0381294
111	0x3dbe1ce7	0.092828564
112	0xbcac5587	-0.021036876
113	0xbd86f678	-0.06589979
114	0x3d4b6b27	0.049662735
115	0x3c216fe7	0.00985334
116	0xbd811d42	-0.063044086
117	0xbdcb2dc3	-0.09920838
118	0xbc92a327	-0.017900063
119	0xbd2f1c1a	-0.04275141
120	0x3d18b69a	0.037283517
121	0x3d09fd20	0.033688664
122	0x3ceba220	0.02876383
123	0xbc951dda	-0.01820271
124	0x3d5d475d	0.054023135
125	0x3d4e2d50	0.050336182
126	0xbca91f87	-0.020644916
127	0xbdc2135f	-0.09476351
128	0x3d71df77	0.059051003
129	0xbd61638d	-0.05502658
130	0x3af9ee00	0.0019068122
131	0x3d007e5d	0.03137051
132	0xbdc5ef13	-0.096647404
133	0xbdb1b49f	-0.08677029
134	0xbc2755b3	-0.010213303
135	0xbd8a82f0	-0.067632556
136	0xbc175cc0	-0.009238422
137	0x3d97b033	0.07406654
138	0x3d52c933	0.05146141
139	0xbdb7808d	-0.08960066
140	0x3d3141fd	0.043275822
141	0xbd68bdea	-0.05682174
142	0xbd4652bd	-0.04841875
143	0x3cbc97ed	0.023021663
144	0xbbdddde7	-0.0067708376
145	0xbd8d5a90	-0.06902039
146	0xb9bf74cd	-0.00036517382
147	0xbc2edff3	-0.010673511
148	0xbc6560b3	-0.014000106
149	0xbd4b0fe0	-0.049575686
150	0x3cfed03a	0.03110515
151	0xbdaed96a	-0.08537562
152	0xbd519dda	-0.05117593
153	0xbc2f1280	-0.010685563
154	0x3d6a290a	0.057168044
155	0x3d359507	0.044331577
156	0x3d4c45a3	0.0498711
157	0xbd10a9d0	-0.035318196
158	0xbdb71c08	-0.089408934
159	0x3c30cb5a	0.01079067
160	0x3d912f68	0.0708912
161	0x3c760f5a	0.015018309
162	0xbcf05fda	-0.02934258
163	0x3db78ae3	0.089620374
164	0xbd0d2790	-0.034461558
165	0xbdbb8827	-0.091568284
166	0x3d10224d	0.03518896
167	0xbda69570	-0.08133972
168	0xbca7a8c0	-0.020466208
169	0x3d711e8d	0.058867026
170	0x3db63703	0.088972114
171	0xbce51987	-0.027966274
172	0xbd9be6e7	-0.076124005
173	0x3cdb3fad	0.026763761
174	0x3c677e8d	0.014129293
175	0xbdb22a9b	-0.086995326
176	0x3cb2872d	0.021792972
177	0x3c19d5e7	0.009389377
178	0x3dc7e542	0.09760524
179	0x3d56c5c0	0.052434683
180	0xbcfd5ca7	-0.03092797
181	0x3cc62e1a	0.024191905
182	0x3d33566a	0.043783583
183	0x3d91535b	0.07095977
184	0x3d9593f0	0.073036075
185	0xbdb55a23	-0.08855083
186	0x3cc65bc7	0.024213685
187	0xbd995a22	-0.074878946
188	0x3dbfa3a0	0.09357381
189	0x3cee5ead	0.02909788
190	0x3d8914d8	0.06693429
191	0x3d489797	0.048972692
192	0xbdac1b22	-0.08403613
193	0x3da0981a	0.07841511
194	0xbc05a773	-0.008157599
195	0xbda11f1f	-0.07867264
196	0xbdc962d7	-0.09833305
197	0xbd5d3a7d	-0.054010857
198	0x3d2e8e2d	0.04261606
199	0xbd83824a	-0.06421335
200	0xbd0cbc90	-0.034359515
201	0x3b000900	0.0019536614
202	0x3db14caa	0.08657201
203	0x3dca6c22	0.09883906
204	0xbda793f0	-0.08182514
205	0xbcb97f2d	-0.02264365
206	0xbc20215a	-0.009773577
207	0x3dbd60ed	0.09247003
208	0x3d6dca07	0.058053996
209	0xbd96a6fa	-0.07356067
210	0xbcb665c0	-0.022265315
211	0x3bdb441a	0.006691468
212	0x3db1c13b	0.08679434
213	0xbd4b0410	-0.04956442
214	0x3d8c0c67	0.06838303
215	0xbd7785f0	-0.060430467
216	0x3d22b887	0.03972676
217	0x3d3d9b33	0.046290588
218	0x3dbb217d	0.09137247
219	0xbcb0b587	-0.021570934
220	0x3d7828b0	0.060585678
221	0xbd33e12d	-0.043915916
222	0xbc86142d	-0.016367042
223	0x3d9e3435	0.077248015
224	0xbd5396ed	-0.051657606
225	0xbd4e1e87	-0.050322082
226	0x3d3ac30a	0.04559616
227	0x3d8757af	0.06608521
228	0xbda7d69b	-0.081952296
229	0x3d9aa397	0.075507335
230	0xbd5d95ca	-0.054097928
231	0xbc825627	-0.015910221
232	0xbdaac0b0	-0.083375335
233	0xbd5a9c17	-0.053371515
234	0x3c2f2940	0.010690987
235	0xbb477067	-0.0030431987
236	0xbb310a33	-0.0027014136
237	0x3d448f97	0.0479885
238	0x3d3f16da	0.046652652
239	0x3d537530	0.05162543
240	0xbdb6c2c8	-0.0892387
241	0xbd6ea107	-0.058259036
242	0x3bdd504d	0.0067539574
243	0x3d27de77	0.040983643
244	0x3c9911a7	0.018685175
245	0x3dc054b5	0.093911566
246	0x3db2e93a	0.08735891
247	0x3d7197b3	0.058982562
248	0x3d83ba78	0.064320505
249	0x3d81da3b	0.06340452
250	0x3cfbb82d	0.03072747
251	0xbc9f9f2d	-0.01948508
252	0x3d847ee2	0.064695135
253	0x3d6a42a7	0.05719247
254	0xbd307de7	-0.04308882
255	0xbd4066b0	-0.04697293

weight f4 [1, 256]
0	0xbcc14850	-0.023594052
1	0x3cce002c	0.025146566
2	0xbcc13c7c	-0.023588412
3	0xbce2eeac	-0.027701698
4	0xbd073956	-0.033013664
5	0xbd17e930	-0.03708762
6	0x3d62287c	0.05521439
7	0xbd57badc	-0.052668437
8	0x3d47f766	0.048819922
9	0x3d5aac2c	0.053386852
10	0xbd72a50e	-0.05923944
11	0xbd36aea0	-0.04460013
12	0xbbdb02d0	-0.006683685
13	0xbc5bbcc0	-0.013411701
14	0xbd172674	-0.036901906
15	0x3ce64050	0.028106838
16	0x3a8775c0	0.0010334775
17	0xbd7c3b1c	-0.06157981
18	0x3d7438a6	0.059624337
19	0xbd13ce6c	-0.03608553
20	0xbcc35580	-0.02384448
21	0xbc1e37c8	-0.009656854
22	0xbc8ca5b4	-0.017168857
23	0xbd66e536	-0.056370936
24	0x3c8e9f24	0.017409869
25	0x3b91b4e0	0.004446611
26	0x3d2099fc	0.03920935
27	0x3d411fd0	0.04714948
28	0xbd714290	-0.05890137
29	0xbca4e938	-0.020130739
30	0x3d73a13c	0.059479937
31	0xbc9a725c	-0.018853359
32	0xbbed26c0	-0.0072372854
33	0x3d423bf4	0.047420457
34	0xbd61f644	-0.055166498
35	0xbb8e9890	-0.004351683
36	0xbd0c0b94	-0.03419073
37	0x3cc08974	0.023503043
38	0x3c6dbb00	0.014509916
39	0xbd7dc146	-0.061951898
40	0xbbe848a0	-0.0070887357
41	0x3d23a7d6	0.039954983
42	0xbcc26dac	-0.023733936
43	0xbcdccaac	-0.02695211
44	0xbb8fe2d0	-0.004391052
45	0x3d3bcca0	0.045849442
46	0x3ce6f0b0	0.02819094
47	0xbd43faac	-0.04784648
48	0x3c244608	0.010026462
49	0x3d25c548	0.040471345
50	0x3c3038d0	0.010755733
51	0x3d33a0b8	0.043854445
52	0xbc058738	-0.008149914
53	0x3d70b04a	0.058761872
54	0xbd0a1580	-0.03371191
55	0xbcdb1a9c	-0.026746087
56	0xbd0cf5fa	-0.03441427
57	0xbcce1c58	-0.02516
58	0xbd5212d0	-0.051287472
59	0x3cba57d8	0.022746965
60	0xbce67818	-0.028133437
61	0xbcdeb864	-0.027187534
62	0x3cf864e8	0.030321553
63	0x3d7e19a8	0.062036186
64	0xbc9673a4	-0.018365689
65	0xbc45bf70	-0.012069568
66	0x3cf7fc08	0.030271545
67	0xbcab4ecc	-0.020911597
68	0x3cba1200	0.022713661
69	0x3d236188	0.039887935
70	0xbd05e9ba	-0.032693602
71	0xbd1a7122	-0.037705548
72	0x3d17cf68	0.037063032
73	0xbc991a50	-0.018689305
74	0x3d4510ee	0.04811185
75	0x3d6dae80	0.058027744
76	0xbd762b3c	-0.060099825
77	0x3c8356ec	0.016032659
78	0xbd7cac20	-0.06168759
79	0x3d716952	0.058938332
80	0x3d52b37c	0.0514407
81	0xbd61783e	-0.055046313
82	0xbd04dc4a	-0.032436647
83	0xbd5b0d5c	-0.053479537
84	0xbd3463c8	-0.04404047
85	0xbc3cddd0	-0.011527494
86	0x3ccaf780	0.02477622
87	0x3d7ac998	0.06122741
88	0x3d6e318c	0.05815272
89	0xbd05ac70	-0.032635152
90	0xbba91e60	-0.0051610917
91	0x3c71e598	0.014764212
92	0x3cf55a3c	0.029950254
93	0xbd7f73dc	-0.06236635
94	0xbd477c4c	-0.048702523
95	0xbd18b05c	-0.037277564
96	0x3cb9a144	0.022659905
97	0xbd491eea	-0.049101748
98	0xbc21e208	-0.00988055
99	0xbbd2c340	-0.006431967
100	0xbd32e8d6	-0.04367908
101	0xbd2bce5e	-0.041944854
102	0xbd07a7fa	-0.03311918
103	0x3d799b68	0.060939223
104	0xbc6a8de8	-0.01431606
105	0xbbb54540	-0.005531937
106	0x3cc06b7c	0.023488753
107	0xbce8519c	-0.028359227
108	0x3d5b48c8	0.053536206
109	0x3cb194e4	0.021677442
110	0x3d597038	0.053085536
111	0xba2a8e80	-0.00065062195
112	0x3cd9d368	0.026590064
113	0xbca8d034	-0.020607091
114	0x3bd5c310	0.0065234974
115	0xbd7d78d6	-0.061882816
116	0x3d5d5d96	0.05404433
117	0xbd3afce2	-0.045651324
118	0x3c1cd280	0.0095716715
119	0x3d46c4c0	0.04852748
120	0xbd05eb84	-0.03269531
121	0xbd23b23e	-0.039964907
122	0x3d2e7b20	0.04259789
123	0xbd412d92	-0.0471626
124	0x3d15e3fa	0.03659437
125	0xbbe153c0	-0.006876439
126	0x3c09d760	0.008413166
127	0xbd45a004	-0.048248306
128	0xbbe75b70	-0.0070604607
129	0x3d4cb7f2	0.04998011
130	0xbd470ee6	-0.048598193
131	0x3c5e6508	0.013573892
132	0xbcf57e48	-0.029967442
133	0x3d2a75fc	0.041616425
134	0xbd62197e	-0.055200092
135	0xbc95ae38	-0.01827155
136	0xbd6933a0	-0.056934
137	0x3d163532	0.036671825
138	0x3c3bdc68	0.011466123
139	0xbd6d8f1a	-0.0579978
140	0x3d2816ea	0.041037478
141	0xbc806948	-0.015675202
142	0x3d789de4	0.06069745
143	0xbb444260	-0.002994679
144	0x3d2ae846	0.04172542
145	0x3c276648	0.010217257
146	0x3cf597e8	0.029979661
147	0x3d580e7e	0.052748196
148	0xbcf9ebf4	-0.030508019
149	0x3cfda5e4	0.030962892
150	0xbb5fc140	-0.0034142286
151	0x3d62c084	0.05535938
152	0xbd4b26ae	-0.049597435
153	0xbd6c5606	-0.057699226
154	0xbcc62010	-0.02418521
155	0x3d3b321a	0.045702077
156	0xbbdd37d0	-0.006751038
157	0xbc678860	-0.014131635
158	0xbcd02ee4	-0.025412984
159	0x3d6a87a6	0.05725827
160	0xba5a8580	-0.0008335933
161	0xbd2f33ee	-0.042774133
162	0x3c93e5ec	0.018053971
163	0xbd277676	-0.040884458
164	0x3902c400	0.00012470782
165	0xbc84582c	-0.016155325
166	0xbd16eb5c	-0.03684555
167	0x3d66b3c4	0.05632378
168	0x3ce43744	0.027858384
169	0x3d1e3f98	0.038634866
170	0xbd2ccfb0	-0.042190254
171	0x3bfece90	0.007776089
172	0x3be64710	0.0070275143
173	0x3d0bad76	0.034100972
174	0xbd081d32	-0.033230968
175	0xbcab7cf0	-0.020933598
176	0x3d7d9774	0.061912015
177	0x3d02d972	0.031945653
178	0xbc873988	-0.016506925
179	0xbd7ddb08	-0.061976463
180	0x3c642700	0.013925314
181	0xbbbc6310	-0.005749114
182	0xbd45d594	-0.048299387
183	0x3d57c8ae	0.052681617
184	0xbd19dd88	-0.037564784
185	0xbbb44df0	-0.005502455
186	0x3c522758	0.012826763
187	0x3ad4e040	0.0016241148
188	0xbc8656ec	-0.01639887
189	0x3ac67840	0.0015142038
190	0x3d4ac592	0.049504824
191	0x3ae41ec0	0.0017404184
192	0xbd643a2c	-0.05571954
193	0xbd463918	-0.048394293
194	0x3cc71844	0.024303563
195	0xbd70df9e	-0.058807008
196	0xbc4b0de0	-0.012393445
197	0xbd5132c4	-0.051073804
198	0x3d4ec8a4	0.050484315
199	0xbcc2dce8	-0.023786977
200	0x3c95c1ec	0.018280946
201	0x3c9e6fd4	0.019340433
202	0xbaf5e540	-0.0018760338
203	0x3cc115a4	0.02356989
204	0xbd46223c	-0.048372492
205	0x3c5c2eb8	0.013438873
206	0x3c9b6b58	0.018972084
207	0xba9c51c0	-0.0011926219
208	0xbc91cd74	-0.017798163
209	0xbd002918	-0.03128919
210	0xbb99ad30	-0.004689835
211	0xbc5a3880	-0.013319135
212	0xbb8f41a0	-0.004371837
213	0xbd5c020e	-0.053712897
214	0x3d2f42ec	0.04278843
215	0xbcb5516c	-0.022133552
216	0x3cc3976c	0.023875915
217	0xbd4863b4	-0.04892321
218	0x3beff2a0	0.0073226243
219	0xbc968bb4	-0.018377163
220	0x3a2b5a80	0.0006536618
221	0x3d295c3a	0.04134772
222	0xbd4f08c8	-0.050545484
223	0x3cb37c80	0.021909952
224	0x3ce96394	0.028489865
225	0xbd5b4e50	-0.05354148
226	0x3ca09d80	0.019606352
227	0x3d2deb74	0.042460874
228	0x3d148b80	0.03626585
229	0x3d5a05ce	0.053228192
230	0xbb1d9240	-0.002404347
231	0x3c5f5948	0.013632126
232	0x3d572a8c	0.05253081
233	0xbc7951e0	-0.015217274
234	0x3c540480	0.012940526
235	0x3d3edf04	0.046599403
236	0x3d3aa472	0.045566984
237	0xbd5f1fce	-0.05447369
238	0xbc995284	-0.018716104
239	0xbccaae98	-0.024741456
240	0xbc0e88b8	-0.0086995885
241	0x3c616c68	0.013758756
242	0xbd4d7048	-0.050155908
243	0xbcc8387c	-0.024440996
244	0xbd37fde6	-0.04491987
245	0x3d421f58	0.047393173
246	0xbbc7ef70	-0.006101541
247	0xbc0b0578	-0.008485191
248	0xbd0423dc	-0.03226076
249	0xbcd635dc	-0.026148729
250	0xbc2924e0	-0.010323733
251	0x3d257256	0.040392242
252	0x3d36ef96	0.04466208
253	0xbcb82b9c	-0.022481732
254	0x3b2de200	0.0026532412
255	0x3d06a5c8	0.032872945
