simpleExercises/CppTorch2/models/net.pt (torch, 110247 bytes, 3 tensors)

weight f4 [256, 100]
0.09038233 -0.06753123 -0.0766953 -0.09909829 -0.058397092 -0.055528488 0.015186108 0.03860717
-0.056840338 0.029324591 0.056649424 -0.07182918 0.042372406 0.03557184 -0.04384003 0.059661914
0.08545704 0.09155446 -0.018239368 -0.018287588 -0.0058487537 -0.077334635 0.052873887 0.015629793
0.07897848 0.043993093 -0.052996483 -0.04978646 0.07204502 0.052980255 0.0173005 -0.08144975
-0.004176927 -0.075550854 -0.05001929 -0.017674757 -0.05423976 0.00086989405 0.069262736 0.083854854
0.08106505 0.07518269 0.016168548 -0.077199996 -0.08966943 0.08084513 0.03774445 0.042477287
-0.09314171 -0.0030753016 0.03920096 0.07337308 -0.00637784 -0.03508986 0.08452524 0.09139365
-0.09768625 -0.029794395 -0.08978599 0.010263706 -0.025399327 0.03452451 0.054166544 0.0007611871
-0.07403401 -0.07878672 0.06872018 0.048851527 -0.088424385 -0.026757717 -0.04941043 0.093553446
-0.021393096 -0.015695382 0.080148555 -0.047434032 0.08543394 -0.021689642 0.08868851 0.040526357
0.018953836 0.062646285 0.06416692 0.025391316 -0.05282277 -0.09796289 -0.03964621 -0.03472016
-0.05902456 0.042676844 -0.031225085 -0.0714304 -0.010349417 0.0639289 -0.07964996 -0.04411024
-0.036776688 -0.09033252 0.014702928 0.04315672 -0.0644199 0.050320186 0.067945376 0.045266498
0.008826864 -0.065910235 -0.081538595 0.09512069 -0.07626494 0.043519367 -0.052248515 0.008260525
0.056671955 0.0144815445 0.07820821 0.09428606 0.09903746 0.04454067 -0.018096352 0.092241995
0.079378985 -0.02314247 -0.09689971 -0.049341287 -0.09818708 -0.05571909 -0.09647824 -0.046227384
-0.07142005 -0.083463445 0.027258886 -0.060337555 0.09309026 0.011400878 -0.05354315 -0.0808043
-0.036680676 0.0928288 -0.07729608 0.048890125 0.036746502 -0.023653531 -0.04717183 0.095261194
-0.08475081 -0.08444108 0.018794239 -0.07389542 -0.025482286 0.052554894 -0.082906 0.010361779
0.03583863 0.014913583 -0.05781871 0.006220508 0.0006834745 0.07676561 0.0016992808 0.009199477
0.0036406517 -0.05283649 -0.029457116 -0.016231943 -0.0976452 0.037180852 0.06181538 0.09647057
-0.049366474 0.09229293 0.010197747 0.038150858 0.05387292 0.07685607 0.06807345 0.04184754
0.002928126 -0.03555231 -0.03188919 0.0052659274 0.07140827 0.00047682525 0.0979644 0.09694047
0.043723237 0.05896641 0.0979957 0.06101377 0.00771209 -0.02143581 0.044458307 -0.07406441
0.0015581012 -0.03311218 -5.0771236e-05 0.082684495 -0.09623005 -0.049332358 0.0015473723 0.039801564
-0.06848015 0.06233871 -0.017729664 0.062443078 -0.0040002824 -0.026611662 0.03182335 0.093656935
0.07132769 -5.1975253e-06 -0.072755896 0.09142119 0.09253269 -0.088195704 -0.04332391 -0.001052165
-0.09288906 0.07560904 -0.09627738 -0.09593751 -0.06333353 0.062015712 -0.092806 -0.009018743
0.08276756 -0.021827925 -0.012523604 -0.02227509 0.09693197 0.06344562 -0.004997337 0.037226688
-0.09153283 0.008334554 0.024364937 0.050206687 -0.0642933 -0.086446896 0.022542203 0.021802366
0.078183465 -0.07221414 0.08255487 0.07813565 -0.008699715 0.09556886 0.07391377 -0.049259733
-0.019578291 0.013197589 0.02812506 -0.022343123 0.017616605 0.012546862 0.033940256 -0.06559163
00000000: 5f1a b93d d04d 8abd 6d12 9dbd 0bf4 cabd
00000010: ca31 6fbd d771 63bd 27cf 783c 8d22 1e3d
00000020: 6ad1 68bd 203a f03c 3a09 683d 2d1b 93bd
00000030: b08e 2d3d c7b3 113d 9a91 33bd 0d60 743d
00000040: 1a04 af3d e880 bb3d ba6a 95bc dacf 95bc
00000050: e7a6 bfbb 9f61 9ebd 4a92 583d 0d0a 803c
00000060: 78bf a13d 1a32 343d d712 59bd e3ec 4bbd
00000070: 578c 933d d301 593d c7b9 8d3c 20cf a6bd
00000080: 9ade 88bb 68ba 9abd 07e1 4cbd a7ca 90bc
00000090: 832a 5ebd 9a09 643a 9fd9 8d3d 18bc ab3d
000000a0: 6f05 a63d 62f9 993d e773 843c 081b 9ebd
000000b0: 9ba4 b7bd 2292 a53d ed99 1a3d aafc 2d3d
000000c0: 15c1 bebd 008b 49bb 3091 203d a044 963d
000000d0: 33fd d0bb 63ba 0fbd 921b ad3d 982c bb3d
000000e0: bb0f c8bd 6013 f4bc b8e1 b7bd 1a29 283c
000000f0: 4012 d0bc 9369 0d3d bddd 5d3d 678a 473a
00000100: 259f 97bd ef5a a1bd 2abd 8c3d 8a18 483d
00000110: d817 b5bd 0033 dbbc 9762 4abd f398 bf3d
00000120: 9340 afbc 9a93 80bc ed24 a43d 304a 42bd
00000130: fdf7 ae3d 7aae b1bc 52a2 b53d f7fe 253d
00000140: 1345 9b3c b24c 803d f269 833d 7301 d03c
00000150: b05c 58bd c5a0 c8bd 1064 22bd ba36 0ebd
00000160: bdc3 71bd eacd 2e3d c0cb ffbc 1a4a 92bd
00000170: 9a90 29bc 28ed 823d 851f a3bd f0ac 34bd
00000180: 27a3 16bd 4200 b9bd 8de4 703c 1ac5 303d
00000190: 95ee 83bd 8a1c 4e3d f226 8b3d 5d69 393d
000001a0: 8d9e 103c f2fb 86bd b5fd a6bd a3ce c23d
000001b0: cb30 9cbd 5d41 323d 8a02 56bd 2757 073c
000001c0: da20 683d 0044 6d3c a02b a03d 0d19 c13d
000001d0: 27d4 ca3d 4770 363d cd3e 94bc 5fe9 bc3d
000001e0: 7391 a23d 4795 bdbc 5b73 c6bd 171a 4abd
000001f0: 4f16 c9bd b339 64bd 6296 c5bd ed58 3dbd
00000200: ad44 92bd e2ee aabd 074e df3c 8324 77bd
00000210: 1ba6 be3d c0ca 3a3c 1050 5bbd ba7c a5bd
00000220: 7a3e 16bd 071d be3d 684d 9ebd 0341 483d
00000230: 8083 163d 0dc5 c1bc 4037 41bd 4d18 c33d
00000240: d591 adbd 72ef acbd 60f6 993c 7b56 97bd
00000250: 3ac0 d0bc cd43 573d 9fca a9bd 73c4 293c
00000260: 87cb 123d 1a58 743c 50d3 6cbd 67d5 cb3b
00000270: 332b 333a 4a37 9d3d 67ba de3a 67b9 163c
00000280: 0098 6e3b 136b 58bd 0d50 f1bc daf8 84bc
00000290: 35fa c7bd f34a 183d 2032 7d3d 5d92 c53d
000002a0: 8034 4abd 1304 bd3d 7314 273c 1344 1c3d
000002b0: daa9 5c3d b766 9d3d 186a 8b3d 5368 2b3d
000002c0: cde5 3f3b 4d9f 11bd 3d9e 02bd cd8d ac3b
000002d0: 803e 923d 67fe f939 8fa1 c83d ba88 c63d
000002e0: 2317 333d c386 713d f8b1 c83d 93e9 793d
000002f0: b3b5 fc3b 279a afbc ea19 363d 15af 97bd
00000300: 3339 cc3a a3a0 07bd 33f3 54b8 7d56 a93d
00000310: 4314 c5bd ba10 4abd 33d1 ca3a f706 233d
00000320: 523f 8cbd e056 7f3d cd3d 91bc 50c4 7f3d
00000330: cd14 83bb b300 dabc 3359 023d 35cf bf3d
00000340: 4014 923d 6766 aeb6 0b01 95bd 083b bb3d
00000350: c781 bd3d f39f b4bd 6a74 31bd cde8 89ba
00000360: 9f3c bebd ead8 9a3d 132d c5bd e37a c4bd
00000370: 03b5 81bd 3004 7e3d 1211 bebd 5ac3 13bc
00000380: 0a82 a93d 7ad0 b2bc cd2f 4dbc 407a b6bc
00000390: 4584 c63d c7ef 813d b3c0 a3bb 037b 183d
000003a0: 9075 bbbd a78d 083c fa98 c73c 87a5 4d3d
000003b0: 35ac 83bd 120b b1bd 6daa b83c e09a b23c
000003c0: a71e a03d 02e5 93bd 8712 a93d 9505 a03d
000003d0: 4089 0ebc 9bb9 c33d 1a60 973d 93c4 49bd
000003e0: a762 a0bc b33a 583c 8766 e63c ed08 b7bc
000003f0: b350 903c 5a91 4d3c f004 0b3d e854 86bd

bias f4 [256]
0.022201573 0.090389155 0.011284339 -0.0030876638 -0.08836277 -0.07604823 -0.084770516 0.052293684
-0.06314885 -0.044038083 0.07326289 0.0984527 -0.03229746 0.07490472 0.05518849 -0.010951257
-0.027414262 -0.025881672 -0.07640765 0.075308345 0.058270812 -0.039929796 -0.04737234 0.034475744
0.0008087635 -0.009467042 0.05826583 0.0032262206 -0.084574915 0.08362564 -0.07937129 0.084403254
-0.0044603827 -0.019267058 -0.017059112 -0.03949684 0.07318858 0.05760913 -0.0762861 0.051282894
-0.012518001 -0.07861699 -0.04922495 0.078693286 0.07253929 -0.05701076 -0.056545865 -0.092449084
0.035930943 -0.06389605 0.09705757 -0.048609257 -0.08329954 -0.049248207 -0.052402165 0.06274128
0.06583653 0.09194501 0.03215101 -0.08925756 0.09404898 0.05511364 -0.010355986 -0.029806638
-0.030049598 0.0765638 0.067480564 -0.06611039 -0.069881454 -0.097126745 -0.07951844 -0.0936046
0.07185751 0.0391603 0.065154806 -0.08893225 0.06811012 0.023550345 0.037021983 0.09354363
-0.047260452 0.0029672028 0.081108294 -0.055068254 0.08668999 0.038766097 0.059148837 -0.05960331
-0.09789115 -0.03883591 -0.079443805 0.020064795 0.051865757 0.020992411 -0.031199265 -0.061383463
0.0020559074 0.077855945 0.056457188 0.022744441 -0.0819027 0.02517649 0.052895714 0.09816855
-0.029837286 0.045201816 -0.059022795 -0.0003866315 0.03277227 -0.024306774 0.030081809 -0.058759212
0.028375102 0.063135326 -0.024169017 -0.039730635 0.0053239944 0.060090363 0.007705295 -0.0006656766
0.0126618985 0.070345916 -0.003253293 0.018386258 -0.07137666 -0.050665464 -0.0164549 0.0045736074
-0.06625327 -0.099032156 -0.018637074 0.031168675 -0.06593617 0.010936809 -0.015033376 -0.08847194
-0.0530527 -0.024968838 -0.055078365 -0.066910185 -0.015726542 0.09464916 -0.08131228 -0.05958357
0.041773643 -0.02422737 0.051460065 0.09692595 0.010791028 0.034055997 -0.04814005 0.019485606
-0.07892573 0.08508537 0.05620457 -0.02927872 0.028883874 0.04429641 -0.08545172 0.02232231
-0.046780385 0.0582924 0.031765163 -0.07566526 -0.0831743 -0.0065353396 0.057486355 0.041808963
0.044220578 -0.08971312 -0.09589268 -0.06397682 0.058344472 -0.018604636 -0.049986746 -0.033990275
-0.097267546 -0.07078252 -0.05432227 0.07470377 0.04842776 0.0154284835 0.050850846 0.09253054
-0.011714101 0.08035512 -0.08279611 -0.049197912 0.024441827 -0.019297684 -0.01083256 -0.08387115
0.029977966 0.08125235 -0.08078464 -0.031450417 0.06434392 0.043850448 -0.04823289 -0.043984104
0.040969826 -0.0009019971 -0.010196698 0.07522211 -0.0009788036 -0.0071117044 0.03128053 0.06614437
0.054350663 0.08921728 0.027620375 0.0030791045 -0.08058148 -0.023971666 0.037491765 -0.07181945
0.046556056 0.0486668 -0.048473466 0.06346966 0.025784587 0.0045707943 0.090348676 -0.03749199
-0.046226896 -0.045339037 0.06727024 0.06472232 -0.06394887 0.0798645 0.05376041 -0.09191642
0.0025558115 -0.04495255 0.032266524 0.045616176 0.067584254 -0.009151399 -0.043085124 -0.01789676
0.057563927 -0.011710966 0.028394032 0.08018656 0.045484114 -0.05671903 0.039898362 0.07708841
-0.06735196 0.06177304 0.045420494 0.08575746 -0.09746192 0.033930827 -0.015408433 0.07693942
00000000: 13e0 b53c f31d b93d f3e1 383c 675a 4abb
00000010: 8af7 b4bd 2dbf 9bbd 2a9c adbd e731 563d
00000020: 2f54 81bd 4761 34bd db0a 963d 92a1 c93d
00000030: 574a 04bd a567 993d 530d 623d e76c 33bc
00000040: e093 e0bc cd05 d4bc 9d7b 9cbd 433b 9a3d
00000050: 60ad 6e3d 6d8d 23bd 8009 42bd 7036 0d3d
00000060: 3303 543a a71b 1bbc 27a8 6e3d 006f 533b
00000070: 9d35 adbd eb43 ab3d 6a8d a2bd 9ddb ac3d
00000080: 6728 92bb f3d5 9dbc 8dbf 8bbc 70c7 21bd
00000090: e5e3 953d 8df7 6b3d e33b 9cbd 030e 523d
000000a0: 4d18 4dbc f201 a1bd 1aa0 49bd f229 a13d
000000b0: 7b8f 943d 1d84 69bd a39c 67bd f255 bdbd
000000c0: 532c 133d efdb 82bd 1fc6 c63d 801a 47bd
000000d0: f398 aabd 7db8 49bd a7a3 56bd 807e 803d
000000e0: 4dd5 863d aa4d bc3d c7b0 033d abcc b6bd
000000f0: c09c c03d d7be 613d 27ac 29bc 0d2d f4bc
00000100: 932a f6bc 7bcd 9c3d 4033 8a3d e264 87bd
00000110: 021e 8fbd 63ea c6bd 90da a2bd c5b3 bfbd
00000120: 082a 933d 8d66 203d e26f 853d 1d22 b6bd
00000130: 527d 8b3d a7ec c03c 5da4 173d cd93 bf3d
00000140: 2d94 41bd 6775 423b 1b1c a63d 408f 61bd
00000150: 858a b13d 33c9 1e3d 0d46 723d 9a22 74bd
00000160: 287b c8bd 6712 1fbd 6fb3 a2bd ed5e a43c
00000170: 3071 543d 47f8 ab3c 9a95 ffbc 3a6d 7bbd
00000180: 67bc 063b f072 9f3d a73f 673d 8d52 ba3c
00000190: 9abc a7bd ed3e ce3c 2da9 583d 980c c93d
000001a0: 536d f4bc 8a25 393d e3c1 71bd cdb4 cab9
000001b0: 373c 063d 001f c7bc 206e f63c 80ad 70bd
000001c0: e772 e83c 184d 813d 1afe c5bc 97bc 22bd
000001d0: e774 ae3b 5021 763d b37c fc3b cd80 2eba
000001e0: da73 4f3c 8511 903d 3335 55bb c79e 963c
000001f0: ed2d 92bd 9786 4fbd 6dcc 86bc 33de 953b
00000200: cbaf 87bd 5fd1 cabd c7ac 98bc 7355 ff3c
00000210: 8b09 87bd 4d30 333c 8d4e 76bc c730 b5bd
00000220: ca4d 59bd 738b ccbc da99 61bd 3508 89bd
00000230: f3d4 80bc 6bd7 c13d 0d87 a6bd e70d 74bd
00000240: d71a 2b3d 7a78 c6bc cac7 523d 1d81 c63d
00000250: dacc 303c 4d7e 0b3d 802e 45bd 47a0 9f3c
00000260: d0a3 a1bd 3d41 ae3d c336 663d edd9 efbc
00000270: e09d ec3c 2770 353d 5001 afbd 47dd b63c
00000280: ca9c 3fbd 03c4 6e3d 301c 023d 63f6 9abd
00000290: 4a57 aabd 6726 d6bb d076 6b3d e03f 2b3d
000002a0: a320 353d 83bb b7bd 6263 c4bd 4706 83bd
000002b0: 9dfa 6e3d c068 98bc e7be 4cbd 6339 0bbd
000002c0: 3534 c7bd 6df6 90bd 0781 5ebd 4afe 983d
000002d0: 305c 463d c0c7 7c3c fa48 503d a780 bd3d
000002e0: 80ec 3fbc 3a91 a43d 0291 a9bd c083 49bd
000002f0: 3a3a c83c 2d16 9ebc 0d7b 31bc a3c4 abbd
00000300: 5a94 f53c a267 a63d 6b72 a5bd 27d2 00bd
00000310: bfc6 833d 879c 333d da8f 45bd ad28 34bd
00000320: facf 273d 0074 6cba 0d10 27bc 0d0e 9a3d
00000330: 334b 80ba 4d09 e9bb 0320 003d b376 873d
00000340: cd9e 5e3d 8db7 b63d 2044 e23c cdca 493b
00000350: e707 a5bd 3a60 c4bc f790 193d 1316 93bd
00000360: 90b1 3e3d d756 473d 1d8c 46bd 62fc 813d
00000370: 333a d33c 9ac6 953b ba08 b93d 3391 19bd
00000380: 6a58 3dbd 6db5 39bd fbc4 893d 238d 843d
00000390: a0f7 82bd 0090 a33d e033 5c3d ad3e bcbd
000003a0: 677f 273b 2a20 38bd e729 043d 07d8 3a3d
000003b0: 9d69 8a3d c0ef 15bc 077a 30bd 3a9c 92bc
000003c0: 27c8 6b3d 5adf 3fbc 9a9a e83c da38 a43d
000003d0: 8d4d 3a3d 3752 68bd 776c 233d 87e0 9d3d
000003e0: d3ef 89bd ba05 7d3d d70a 3a3d 9ba1 af3d
000003f0: 1d9a c7bd 0dfb 0a3d a773 7cbc 6a92 9d3d

weight f4 [1, 256]
-0.043771096 -0.027091287 -0.012505032 -0.061408386 -0.04728069 -0.007263452 0.04523696 -0.027473375
-0.036791958 0.028469235 0.060227714 0.032597326 -0.029842474 0.026597798 -0.057956167 0.029233493
0.022744 0.05348 0.0072620288 -0.0155493915 0.033371843 0.020434774 0.039290637 -0.046766855
0.021750689 -0.055547267 -0.010515109 -0.002683647 -0.044772655 -0.031641304 -0.0121016875 -0.0026558787
-0.05382794 0.043468907 -0.04010818 -0.054768376 -0.039241552 -0.019336857 0.03874524 -0.0186866
0.020646527 -0.020918004 0.04071901 -0.0133871585 -0.038677253 0.048310906 0.0419482 -0.034277424
-0.04626839 0.058993436 0.032943897 -0.03671532 -0.040125795 0.047631823 0.0142394975 -0.047951035
0.0027855262 -0.032960385 -0.049055234 0.004264891 0.00022614747 -0.046595298 -0.009921692 -0.021483198
0.02560845 -0.059203908 -0.04173976 -0.0487376 -0.05871454 -0.047897913 -0.024517737 -0.015887648
-0.056634456 -0.04887648 0.03806924 0.05810085 0.016298495 0.004600674 -0.029563911 0.061626516
0.017249808 -0.025283933 -0.035009645 -0.0029679015 0.025062107 0.010989219 0.039313763 -0.03655768
0.033673763 -0.023991302 0.05493263 -0.015424944 -0.04462088 0.017049976 -0.030134618 0.05802919
0.014890969 -0.01807677 -0.0359855 -0.049237303 0.046707228 -0.0075643584 -0.06076248 0.015095308
-0.02076403 -0.010673009 0.022868507 0.060557835 0.04581458 0.060256213 -0.016502477 -0.043401383
-0.013035797 -0.020877503 -0.043266132 0.052831464 0.05975248 -0.04397119 -0.0073619336 -0.024366938
-0.022694156 -0.03836166 -0.04520583 -0.040636674 0.0019609258 0.012057178 -0.062298104 0.014444634
-0.041984983 0.0074418113 -0.056859456 -0.037667528 -0.008106932 0.026918404 -0.016612113 -0.0014946163
-0.016615368 0.05369108 0.015615873 -0.02846744 -0.0072549284 0.042601325 0.018899843 -0.019151673
0.04619403 -0.058834583 -0.049931414 -0.03012798 -0.042349264 -0.03587979 -0.04943212 -0.022792108
0.05936361 0.038047753 -0.01109878 0.04141493 0.005367078 -0.02689898 -0.007476218 0.01239413
0.0017976314 -0.018903203 -0.002481915 0.04545848 -0.02833946 0.036737025 0.01417508 -0.021804735
0.02726835 0.029537529 -0.028432287 0.060905293 0.052589364 -0.059569933 -0.0006541312 0.059455298
0.03854192 0.012325302 0.028435275 0.053043418 -0.054176882 0.015630275 0.048692197 0.019996822
0.049105823 -0.052135386 -0.036156572 -0.03685438 0.0054655895 0.004242435 -0.020192906 0.041630454
-0.06001798 0.0037238821 -0.05184763 -0.0017406121 -0.015954271 0.056690782 0.04679372 -0.0013693348
-0.03787218 0.041673727 0.05342693 -0.012872592 -0.05301682 0.045793153 0.03845518 -0.03611514
-0.030936472 0.009656295 0.049985386 0.026343346 0.027088962 0.027861856 -0.061786987 0.047258615
-0.046237573 -0.025852554 -0.013072975 -0.05953998 0.01268547 -0.051144138 -0.004071884 -0.037377037
0.024788357 0.01823955 -0.034564056 -0.0067603216 -0.0028855428 0.0062426925 -0.047887668 0.052248515
0.027172267 0.046667375 -0.03382428 -0.057740152 -0.01438646 -0.026158094 -0.009119935 0.027589165
-0.043187656 0.0023275837 0.015542164 0.03684371 0.03590305 -0.026172139 -0.056319818 -0.022016682
0.021203592 0.027960882 0.061223447 0.05103995 -0.009904735 -0.043527007 -0.0050054863 -0.044537246
00000000: 5249 33bd 8cee ddbc e8e1 4cbc 5c87 7bbd
00000010: 66a9 41bd 4002 eebb 644a 393d d80f e1bc
00000020: 2ab3 16bd 5038 e93c 56b1 763d c684 053d
00000030: 3478 f4bc a0e3 d93c 7263 6dbd 147b ef3c
00000040: a051 ba3c d80d 5b3d 50f6 ed3b e0c2 7ebc
00000050: eab0 083d d466 a73c 38ef 203d 9a8e 3fbd
00000060: 802e b23c 8885 63bd 9047 2cbc 20e0 2fbb
00000070: 8863 37bd 509a 01bd 2846 46bc 400e 2ebb
00000080: b07a 5cbd 740c 323d 7a48 24bd ce54 60bd
00000090: c0bb 20bd 5468 9ebc 54b3 1e3d a414 99bc
000000a0: e822 a93c 3c5c abbc fac8 263d d055 5bbc
000000b0: 0a6c 1ebd a8e1 453d e0d1 2b3d 7c66 0cbd
000000c0: ec83 3dbd 1aa3 713d 2ef0 063d ce62 16bd
000000d0: f25a 24bd 9619 433d c84c 693c 4e68 44bd
000000e0: 608d 363b 7801 07bd 24ee 48bd 80c0 8b3b
000000f0: 0022 6d39 b6da 3ebd 988e 22bc 88fd afbc
00000100: d0c8 d13c cc7f 72bd 50f7 2abd 14a1 47bd
00000110: a87e 70bd 9a30 44bd 6cd9 c8bc d026 82bc
00000120: 88f9 67bd b432 48bd 7eee 1b3d 28fb 6d3d
00000130: 6c84 853c 40c1 963b 0430 f2bc 166c 7c3d
00000140: 784f 8d3c 4020 cfbc 4666 0fbd 2081 42bb
00000150: 0c4f cd3c 200c 343c 7807 213d 82bd 15bd
00000160: 80ed 093d 6889 c4bc 0a01 613d e8b8 7cbc
00000170: 62c4 36bd 64ac 8b3c e0dc f6bc 04b0 6d3d
00000180: 40f9 733c bc15 94bc 8865 13bd 0ead 49bd
00000190: 1450 3f3d 70de f7bb 14e2 78bd 5052 773c
000001a0: 5419 aabc d8dd 2ebc bc56 bb3c 7e0b 783d
000001b0: 12a8 3b3d 38cf 763d 3430 87bc a6c5 31bd
000001c0: 1894 55bc 4c07 abbc d437 31bd ce65 583d
000001d0: 04bf 743d 221b 34bd 603c f1bb 2c9d c7bc
000001e0: 18e9 b9bc 1e21 1dbd c029 39bd a472 26bd
000001f0: e082 003b 788b 453c 4c2c 7fbd 30a9 6c3c
00000200: 72f8 2bbd 70da f33b 76e5 68bd 4449 1abd
00000210: f0d2 04bc fc83 dc3c 2016 88bc 00e7 c3ba
00000220: f41c 88bc 2eeb 5b3d b8d9 7f3c 8c34 e9bc
00000230: c0ba edbb ba7e 2e3d d8d3 9a3c f8e3 9cbc
00000240: f435 3d3d 88fc 70bd e284 4cbd f4ce f6bc
00000250: 6c76 2dbd b0f6 12bd 5679 4abd 84b6 babc
00000260: 4227 733d f6d7 1b3d a8d7 35bc b4a2 293d
00000270: 50de af3b 405b dcbc 10fb f4bb c010 4b3c
00000280: 809e eb3a e4da 9abc a0a7 22bb ac32 3a3d
00000290: 2828 e8bc 9079 163d 983e 683c d89f b2bc
000002a0: e061 df3c b0f8 f13c d4ea e8bc d477 793d
000002b0: f267 573d 9aff 73bd 007a 2bba 6687 733d
000002c0: 22de 1d3d 10f0 493c 18f1 e83c 0e44 593d
000002d0: 94e8 5dbd 100b 803c 7871 473d 60d0 a33c
000002e0: 3023 493d ea8b 55bd ea18 14bd 9ef4 16bd
000002f0: b018 b33b 2004 8b3b 986b a5bc b284 2a3d
00000300: 6ad5 75bd 600c 743b 2e5e 54bd 4025 e4ba
00000310: 88b2 82bc 9834 683d c6aa 3f3d 407b b3ba
00000320: dc1f 1bbd 12b2 2a3d 32d6 5a3d 90e7 52bc
00000330: 2a28 59bd 9a91 3b3d 2e83 1d3d 78ed 13bd
00000340: 7c6e fdbc 7035 1e3c 7abd 4c3d 00ce d73c
00000350: ace9 dd3c 8c3e e43c 5a14 7dbd 4092 413d
00000360: 9c63 3dbd bcc8 d3bc 0830 56bc 32e0 73bd
00000370: b8d6 4f3c 847c 51bd 706d 85bb aa18 19bd
00000380: f410 cb3c 1c6b 953c 0a93 0dbd b085 ddbb
00000390: 601b 3dbb 808f cc3b dc25 44bd 8a02 563d
000003a0: 6098 de3c 4a26 3f3d 548b 0abd f080 6cbd
000003b0: 30b5 6bbc 8049 d6bc c86b 15bc ac02 e23c
000003c0: 8ae5 30bd 608a 183b 90a4 7e3c 6ee9 163d
000003d0: 140f 133d f466 d6bc 9caf 66bd 545c b4bc
000003e0: 28b3 ad3c 380e e53c 70c5 7a3d 440f 513d
000003f0: 7847 22bc 6049 32bd 1005 a4bb b06c 36bd
